PrototypicalNet_MNIST/output/prototype_epoch_90.pth (torch, 625687 bytes, 22 tensors)

weight f4 [64, 1, 3, 3]
000000 fb b9 29 3e 5d ae 8e be 76 98 78 be 68 7e 09 be
       0.16574852 -0.27867404 -0.24276909 -0.13427126
000010 08 8c ae 3d 0a 4d 1b bc ad 00 8c 3e ee e7 73 bc
       0.085228026 -0.009478817 0.27344266 -0.014886839
000020 6b d9 bb 3d f4 57 db bd b1 be 79 bd 5e b2 a5 be
       0.091723286 -0.10710135 -0.060972873 -0.32362646
000030 a5 7f 5e be 69 3c 05 be d7 41 6c 3b c0 d6 05 3e
       -0.2172838 -0.13011326 0.0036049986 0.13070202
000040 a5 56 4f 3e 4a c9 66 be 60 f2 05 be c9 9e ff 3d
       0.20247896 -0.22537723 -0.1308074 0.12481458
000050 c0 a9 90 3e 80 8d 6f bd 1b ef 82 3e bb 09 50 bd
       0.2825451 -0.058484554 0.25573048 -0.05079053
000060 bb e9 34 3d f4 5e 9d 3e 1c c6 9d be d1 5f 64 be
       0.044168215 0.30736506 -0.30815208 -0.22302176
000070 4a 4b d6 bd 90 70 06 be bb 94 8d 3e c2 03 5f be
       -0.10463579 -0.13128877 0.27652535 -0.21778777
000080 22 31 20 be 37 e8 71 be 67 31 99 be 52 09 4c be
       -0.15643743 -0.23623739 -0.29920503 -0.1992543
000090 c6 eb 9b 3e 4a ba 30 3e c1 80 23 3e 22 13 a2 3c
       0.30453318 0.17258564 0.15967084 0.019784514
0000a0 40 eb 1d be 89 cc 32 3d 78 ef 95 be ab c4 62 be
       -0.15421772 0.04365209 -0.29284263 -0.22145335
0000b0 dc 56 39 be 5d be 58 3e 36 48 59 3e f6 d0 06 be
       -0.1809954 0.21166368 0.21218953 -0.1316565
0000c0 4d 02 2b bc 06 e5 6b 3e 43 04 b3 3e d2 de 0a 3e
       -0.01043756 0.23036584 0.3496419 0.13561562
0000d0 69 6a 3c 3d 54 12 71 3e 49 eb 58 be 5f 0b 44 3d
       0.045999918 0.23542148 -0.21183504 0.047862407
0000e0 76 75 8d be c2 de 6d be f8 32 2b be 0a 0b 0d 3e
       -0.27628678 -0.23229507 -0.16718662 0.13773742
0000f0 30 76 08 3e 7c ca 43 be af 21 c2 3d 94 3d 2f 3e
       0.13326335 -0.1912021 0.09479081 0.17113334
000100 94 05 20 bd 16 97 ab 3c 88 2c 89 3d f4 01 47 3e
       -0.03906782 0.020946067 0.06697947 0.19434339
000110 ea 00 a5 3e c8 06 87 be cb f5 07 be 75 56 06 3e
       0.3222726 -0.2637236 -0.13277356 0.13118918
000120 03 c0 88 3e 1b 46 8e 3e 40 40 97 3e 38 6e 62 3d
       0.26708993 0.2778786 0.29541206 0.055280894
000130 92 ae 99 be f4 be 01 3d e2 71 65 be 58 f1 a4 be
       -0.30016 0.031676248 -0.22406724 -0.3221538
000140 db b7 92 3e 54 8e 89 3e b4 ba a2 be 7b 31 ae 3d
       0.28655896 0.268664 -0.31783068 0.085055314
000150 d9 e2 ff bc 6a ea 1f bd 76 08 03 be 56 12 17 3e
       -0.0312361 -0.039041914 -0.12796196 0.14753088
000160 9e 57 3d be 4f 03 0c 3e 99 97 33 3e 4f f7 7b 3e
       -0.18490455 0.13673137 0.17538299 0.2460606
000170 0e 45 0c 3e 68 e1 a8 be 86 03 50 be 71 2e 27 3e
       0.13698217 -0.3298447 -0.20313844 0.1632631
000180 38 bd 9b 3d b4 1a 7f be 83 8a 40 be 31 43 a2 3e
       0.0760445 -0.2491253 -0.18802838 0.31691888
000190 68 c1 74 3e 52 ec 05 be be 49 b6 bd 1b be 9d be
       0.23901904 -0.1307843 -0.08900784 -0.308091
0001a0 a5 7e 55 bc 25 95 83 be ed c2 7e be f3 f8 f7 bc
       -0.013030683 -0.25699726 -0.24879046 -0.030270075
0001b0 d9 13 3e 3d 4a 79 03 be 8b c3 4c 3e ea e5 55 be
       0.046405647 -0.12839237 0.19996469 -0.20888487
0001c0 dc 96 98 3e 5b d3 68 3e 43 b4 97 be 4e 09 a9 bd
       0.29802597 0.22736876 -0.29629716 -0.08253728
0001d0 61 44 5d 3c 7a 48 6f 3d 6d 55 b1 3d 69 75 07 3e
       0.013505072 0.05841873 0.08658872 0.13228382
0001e0 6d c2 93 3c 63 97 26 be a6 cf 1d 3e dd 35 a0 be
       0.018037045 -0.16268687 0.15411243 -0.31291094
0001f0 1d 7b 4c be 4c 45 b6 bd 41 e4 21 be 2a 60 ec bd
       -0.19968839 -0.08899936 -0.15809728 -0.11541779
000200 f9 28 8e be e8 63 88 bd e0 bb 91 3d 0d 01 5f be
       -0.27765635 -0.066596806 0.071159124 -0.21777745
000210 a4 4f 48 bc ec 5c 77 3e 3d e3 2a bd 1a 92 17 bc
       -0.012226019 0.2415654 -0.041720618 -0.009251142
000220 db 4c 50 bd 72 cf 32 3d 76 3e 55 3e 5c 40 a0 3e
       -0.050854545 0.043654867 0.20824608 0.31299102
000230 ba 82 5f 3e 25 57 8f 3e f9 93 66 bd 9d 98 a1 be
       0.21827212 0.27996174 -0.05629346 -0.31561747
000240 03 c2 34 be d5 c4 57 3e cf 9e f6 ba 08 0b 37 be
       -0.17652135 0.21071179 -0.0018815639 -0.17875302
000250 02 27 82 be 9b e5 9a be 45 0b 92 be d7 76 91 bd
       -0.25420386 -0.302533 -0.28524223 -0.07102745
000260 5a 38 40 3e da 0a 21 3e ab 48 ab be c6 94 4b 3e
       0.18771496 0.15726796 -0.3345388 0.19880971
000270 05 22 8e be c1 84 b7 bd 60 ce 02 be c3 c0 a2 bd
       -0.2776033 -0.08960868 -0.12774038 -0.07946923
000280 a9 6c a3 bd 20 33 94 be 83 4d 95 be 2a ef 44 bd
       -0.0797971 -0.28945255 -0.291607 -0.048079647
000290 1c fe 3d bc d4 7c 15 be 51 f3 ee 3d 90 e4 99 be
       -0.011596229 -0.145984 0.11667503 -0.30057192
0002a0 26 66 b9 bc 90 05 98 3e aa 25 0b be 3c 3d 93 3e
       -0.022631716 0.29691744 -0.13588586 0.28757656
0002b0 b7 d4 d2 3d 3e bc 9d be dd de 57 3e bd 1f 55 bd
       0.102944784 -0.3080768 0.2108111 -0.05203222
0002c0 78 ab 1f be a9 36 8a 3e 46 24 8c be f6 a6 0a 3d
       -0.15592754 0.26994827 -0.27371424 0.033850633
0002d0 86 c5 64 bd 3b f3 62 3e f0 4e a4 3d 31 13 22 3e
       -0.055852436 0.22163098 0.08022869 0.15827633
0002e0 ad 4f d6 3d 5c 1f d2 bd b4 42 9c bd 65 54 96 be
       0.10464416 -0.102598876 -0.0762991 -0.29361263
0002f0 17 29 27 3e e7 73 8c 3e 89 d7 6f 3e e1 e2 66 be
       0.16324268 0.27432176 0.23422064 -0.22547485
000300 cf 8e cc 3c 38 bb 63 be 9f 7d 36 be e5 61 47 be
       0.02497044 -0.22239387 -0.17821358 -0.19470938
000310 6e 5b e1 3d d8 b8 4c be 4f a9 f0 b8 a4 67 80 3c
       0.11003767 -0.19992387 -0.00011475628 0.01567442
000320 85 cf 5c 3e f8 69 81 be 1f 9f 5f be 5c 52 41 be
       0.21563537 -0.2527616 -0.21838044 -0.18879074
000330 9c 72 75 3e f4 e3 d8 bd 56 39 95 3e 6e e5 07 3e
       0.23969501 -0.105903536 0.29145306 0.13271114
000340 3d 50 7a 3d 50 e8 b1 3b 05 7b 66 bd f2 50 51 3d
       0.061111677 0.005429305 -0.056269664 0.051102586
000350 f6 ad 8c bd 3b b5 1d 3b e0 eb 48 3d 2d e2 7e be
       -0.06869118 0.002406432 0.049053073 -0.24890967
000360 e6 b6 1d be 6e 86 8e 3e fe a3 83 be b7 39 2f b8
       -0.15401801 0.27836937 -0.25711054 -4.1777002e-05
000370 7a 9f b4 3e fc 18 12 3e 51 ab 03 3d d9 da 87 be
       0.3527792 0.14267343 0.032145802 -0.26534155
000380 be 97 3f 3e de 93 77 be db 9e d8 bd 07 66 08 be
       0.18710229 -0.241775 -0.10577174 -0.1332017
000390 5b d9 3d bd 39 14 1e bc 5f f2 84 3e c0 58 44 3d
       -0.046349864 -0.009648376 0.25966164 0.0479362
0003a0 d8 03 97 3e d2 8c 41 3e 0c 52 65 be 10 c0 15 3e
       0.2949512 0.18901375 -0.2239458 0.14624047
0003b0 77 39 7a be 98 74 07 be 40 07 db 3d 7b 86 dd 3d
       -0.24435984 -0.1322807 0.10694742 0.10816666
0003c0 68 08 7c 3e 9a a3 b8 bd d2 25 59 3c 48 24 40 3e
       0.24612582 -0.090155795 0.013253646 0.1876384
0003d0 e0 e1 97 be 39 71 8a 3e 91 3b 85 be 1d 87 3b 3c
       -0.29664516 0.27039507 -0.26022008 0.011445788
0003e0 e0 3c 0c bd 38 36 19 be da d2 11 3d f2 0f 97 3e
       -0.034237742 -0.14962089 0.035601474 0.29504353
0003f0 78 cb cd bd 4c 2f 55 be f5 c3 06 be d7 f3 a2 be
       -0.10048574 -0.20818824 -0.13160689 -0.3182666

weight f4 [64]
000000 3c 0a 82 3f c8 79 7e 3f 3a 77 7f 3f 20 d0 7c 3f
       1.0159373 0.99404573 0.997913 0.98755074
000010 06 56 82 3f a7 2d 7e 3f 83 86 7c 3f d9 09 7f 3f
       1.0182502 0.9928841 0.9864275 0.996244
000020 b8 9f 81 3f a5 05 80 3f 5b 18 82 3f 83 a4 80 3f
       1.0126867 1.0001723 1.0163683 1.0050205
000030 07 14 81 3f 7b de 7b 3f 82 10 7f 3f c3 2f 81 3f
       1.0084237 0.98386353 0.99634564 1.0092701
000040 0d 84 7e 3f bf 80 7b 3f a6 dd 7e 3f a0 b5 81 3f
       0.99420244 0.98243326 0.9955696 1.0133553
000050 67 8f 81 3f db e6 7f 3f ae d3 81 3f b6 ed 7e 3f
       1.0121888 0.9996163 1.0142725 0.9958147
000060 38 b3 7a 3f b1 78 81 3f af 17 7d 3f db 08 80 3f
       0.97929716 1.0114957 0.98864263 1.0002702
000070 15 4e 7d 3f a5 0c 82 3f 2b 5a 80 3f a8 4b 7e 3f
       0.9894727 1.0160109 1.0027517 0.9933419
000080 35 76 7f 3f 85 c3 80 3f ca 78 81 3f e3 68 81 3f
       0.99789745 1.0059668 1.0114987 1.0110134
000090 00 3a 82 3f ac c3 80 3f 32 be 83 3f b6 5d 82 3f
       1.017395 1.0059714 1.0292418 1.0184848
0000a0 4c f9 7c 3f a9 dd 82 3f 14 09 80 3f db 8e 7a 3f
       0.98817897 1.0223895 1.000277 0.9787423
0000b0 f4 db 80 3f f7 20 80 3f 15 47 7f 3f b7 13 7e 3f
       1.0067124 1.001006 0.9971784 0.9924883
0000c0 50 3b 80 3f ca 90 7d 3f 05 e4 81 3f 43 86 7d 3f
       1.0018101 0.99049056 1.0147711 0.9903299
0000d0 91 2f 7f 3f b0 f5 7f 3f 6a d4 80 3f 4e 19 80 3f
       0.99681956 0.99984264 1.0064824 1.0007722
0000e0 5e f2 7a 3f 37 35 80 3f c6 34 81 3f 78 c8 7e 3f
       0.9802607 1.001624 1.009423 0.9952464
0000f0 f1 d2 81 3f 58 81 7f 3f ed 84 7d 3f 93 31 7f 3f
       1.0142499 0.9980674 0.99030954 0.9968502

bias f4 [64]
000000 25 b5 72 3c ca 66 dd bb de f7 08 ba ee 5c 82 bc
       0.014813696 -0.006756638 -0.00052249234 -0.015913453
000010 e1 f3 31 ba 91 73 8e bb 55 25 3d bc a4 c3 5b 3b
       -0.0006788355 -0.0043472727 -0.011544545 0.003353336
000020 e5 27 0b 3c 3f 35 4a bc 4b 51 59 3b 63 85 18 bc
       0.008493398 -0.012341796 0.0033160027 -0.009309146
000030 2f 84 f2 3c 79 ca 8e bc 96 6d 0b bc d3 8d 54 3c
       0.029604046 -0.01743053 -0.008510014 0.012973267
000040 00 a2 87 bc 84 fd c3 bc 39 3c 87 bc 80 83 9b 3c
       -0.01655674 -0.023924597 -0.016508209 0.018983603
000050 54 60 56 3b 6a 64 e3 bb a4 a9 9c 3b 77 e9 35 bc
       0.0032711225 -0.0069394605 0.004780965 -0.011103026
000060 76 63 46 bc 53 04 13 bb a9 50 fe ba b6 87 a4 bc
       -0.012108674 -0.0022432997 -0.0019402701 -0.020084243
000070 1d 7c a1 bb ae 4a 3b 3b c8 0a 61 bc 63 12 e5 bb
       -0.0049281255 0.0028578448 -0.013735481 -0.0069907173
000080 43 fc 84 bb a8 a0 5b bc a8 be 98 bc 8f 75 a4 3c
       -0.0040583923 -0.013405003 -0.0186456 0.020075588
000090 12 be ab bb a4 a6 0e bc fe bf 3a 3c ba b1 65 bb
       -0.005241164 -0.008706722 0.011398314 -0.003504856
0000a0 63 54 1f bc d3 67 77 bb 5c 74 d5 3a c2 c2 bf bc
       -0.009724709 -0.0037751093 0.0016285288 -0.023408297
0000b0 1d 0d 63 3c a2 60 72 3c 77 f1 49 bb 39 bd 07 bc
       0.013858107 0.014793547 -0.003081409 -0.00828486
0000c0 de 7c d2 bb be a4 a5 3a 9b 64 16 ba 03 26 90 bc
       -0.0064235767 0.0012637598 -0.0005737037 -0.01759625
0000d0 12 f2 03 bb 53 13 a7 bb 42 df de 3c 85 52 08 3c
       -0.0020133299 -0.005098739 0.027206067 0.008320455
0000e0 69 39 18 bc 3a 8d 91 3c 63 b6 05 bb 2e 89 3c bc
       -0.009291031 0.017767537 -0.00204029 -0.011507316
0000f0 ec 32 af 3b 0d c9 35 bc d1 62 9f bc 6d fe 1e bc
       0.0053466465 -0.0110952975 -0.019456299 -0.0097042145

running_mean f4 [64]
000000 61 87 87 3b 1d a0 90 3d f1 27 23 bd a3 53 fe 3d
       0.0041360115 0.07061789 -0.039833013 0.12418296
000010 a1 8f 4d 3c b8 be f5 bd 00 c4 7e 3d 8c 7a 2d bd
       0.012546451 -0.11999267 0.06219864 -0.042353198
000020 77 e9 2b bd b9 4a 8b b8 7f a5 4b 3c 51 bc 3d 3d
       -0.041970696 -6.641955e-05 0.012429594 0.04632217
000030 a2 60 63 bb f5 8d f1 3c 96 1b 6e 3d bc 7c 63 bd
       -0.0034695049 0.029486636 0.058131777 -0.055538878
000040 82 3f a5 3d 4a 0a ad 3d a9 ee 61 3d b7 23 5e bc
       0.08068754 0.08449228 0.055159245 -0.01355832
000050 74 67 97 bc 45 21 13 3d a8 0e 04 bc 18 1d 04 3c
       -0.018481947 0.0359204 -0.008060135 0.008063577
000060 d3 9d c8 bc ca e9 b7 bc 53 cd 16 3c e9 1a 2e bc
       -0.024489319 -0.022450346 0.009204227 -0.010626533
000070 6b 10 c4 3d 83 05 51 bd d6 a5 76 3d 50 b1 94 ba
       0.09573444 -0.051030647 0.060216747 -0.0011344347
000080 ce 00 14 3d a9 55 84 3c 4b 0e 00 bd 62 fc 14 bc
       0.03613358 0.016154127 -0.03126363 -0.009093376
000090 46 d1 53 bd 28 a9 cd bd 6e 0b 22 bd b9 12 12 3b
       -0.05171325 -0.100420296 -0.03956168 0.0022288992
0000a0 dd e4 1d 3c 2c 8b 12 b8 30 5a 28 be 28 f6 51 3b
       0.009637085 -3.4938726e-05 -0.16440654 0.003203759
0000b0 4c 1d a7 bc a3 b2 4d bd e1 9d e3 3a ed 4d 9c 3c
       -0.020399712 -0.05021919 0.0017365777 0.019080127
0000c0 3b 4d f7 3d 57 81 8d bc 39 70 41 bd 51 65 a9 3d
       0.120752774 -0.017273588 -0.047226164 0.08271278
0000d0 18 f9 94 bc 04 29 00 3c ba 68 ab bc 27 25 8f bd
       -0.018185183 0.007822279 -0.020923961 -0.06989508
0000e0 86 b4 4e ba 15 82 14 bd 73 46 21 bc aa e7 02 3e
       -0.00078851765 -0.03625687 -0.009843457 0.12783685
0000f0 d5 9a 57 bc 64 d2 dc 3c 4c 62 3a 3d 9f 6f 93 bd
       -0.013159473 0.02695579 0.0455039 -0.071990244

running_var f4 [64]
000000 9d e7 5d 3f 72 60 a6 40 c0 22 28 40 d5 84 70 41
       0.8668154 5.199273 2.627121 15.03243
000010 95 51 fe 3f 03 b5 6d 41 2d 79 8c 40 ca 0d 31 40
       1.9868647 14.856692 4.389792 2.7664666
000020 ce f1 37 40 76 3e f4 3e 70 63 b8 3f 04 bd 6e 40
       2.8741336 0.47703904 1.4405346 3.7302866
000030 b4 10 ab 3f eb 0f f5 3f f5 ad 63 40 bd b1 8d 40
       1.3364472 1.9145483 3.5574925 4.4279466
000040 6d 33 ef 40 10 ba 02 41 45 48 41 40 6f f3 ea 3f
       7.4750276 8.170425 3.020036 1.835554
000050 3b 29 36 3f c7 f0 13 40 f0 4f 1b 3f 6f 6e c9 3e
       0.7115666 2.311571 0.6066885 0.39342067
000060 4b 0c bc 3f 48 20 00 40 bd 23 c8 3e 0b fe 62 3f
       1.4691252 2.0019703 0.39089766 0.8866889
000070 40 41 13 41 aa 94 21 40 1d cc b1 40 ea 69 1d 3f
       9.20343 2.5246987 5.556166 0.6148974
000080 85 28 9e 3f 6d 0d 44 3f e4 0e b1 3f 15 0c 66 3f
       1.2356116 0.76582986 1.3832669 0.89862186
000090 3b 99 37 40 0e 1d 3b 41 e0 70 a8 3f dc 2f ac 3e
       2.8687274 11.694593 1.3159447 0.33630264
0000a0 85 73 c7 3f f8 cc b8 3f 77 66 dc 41 a1 9b 1a 3f
       1.5582129 1.4437551 27.550032 0.6039372
0000b0 de a7 90 3f b6 fb 7c 40 2a 1f db 3e f5 25 c5 3f
       1.1301229 3.9528632 0.42797214 1.5402209
0000c0 2e 47 6d 41 64 2f 2a 3f 07 95 4c 40 7e 5c d5 40
       14.829878 0.6647856 3.196596 6.6675406
0000d0 38 97 f7 3f df 05 88 3f ac 33 58 3f 50 a5 aa 40
       1.9343023 1.0626792 0.84453845 5.3326797
0000e0 ef 85 49 3e e3 e3 d2 3f ec c2 ce 3f b2 cd 79 41
       0.19679998 1.6475796 1.6153235 15.612719
0000f0 88 d0 05 3f 5f 9d 1f 40 f1 cd 4d 40 c9 46 ab 40
       0.5227132 2.4939802 3.2156947 5.352391

weight f4 [64, 64, 3, 3]
000000 70 e5 18 bd 8c ac e3 3c 7f c2 1b 3d 98 74 46 3b
       -0.037328184 0.027792238 0.038027283 0.0030281898
000010 d5 82 05 bd 58 f5 23 bd 76 30 c1 3c a0 90 1d ba
       -0.032595474 -0.0400289 0.023582678 -0.00060106255
000020 12 3d 07 bd a6 d5 2e 3c 1b 23 6b 3c f6 b0 03 3d
       -0.033017226 0.010671055 0.0143516315 0.032151185
000030 a6 c9 04 3d bc 13 21 bc 9a 9d 28 bd 16 31 17 bd
       0.03241887 -0.009831365 -0.041165926 -0.036912046
000040 0b 9a 19 3d 4c 69 5b 3c 19 6f 3b 3c b6 11 54 bd
       0.037500422 0.013391804 0.011440062 -0.051774703
000050 17 86 be 3c 6c d4 15 3d e3 68 a2 3c 22 ba 37 bd
       0.023257298 0.036579534 0.019825405 -0.044855244
000060 65 a0 7f bc b4 cc 22 bd e1 cc cb 3c 5a 02 96 bc
       -0.015602206 -0.039746 0.024877967 -0.018311668
000070 de d3 99 bc 6a 46 99 3c 28 cb a8 bc 1e 37 aa bc
       -0.018777784 0.018710334 -0.020604685 -0.020778235
000080 08 da 01 bc a2 d5 27 bb d1 52 d1 bc 90 3b 30 3d
       -0.007925518 -0.0025609513 -0.025552185 0.043025553
000090 34 78 ad bc b7 fb 2c 3c 36 f9 c2 3c 78 6d 68 3c
       -0.021175481 0.01055806 0.023800474 0.014186256
0000a0 39 7c 50 3c bc a4 14 3d 42 fd a2 3c de 30 83 3b
       0.0127249295 0.036289915 0.019896153 0.004003628
0000b0 10 8c 8c 3d c3 96 d3 3b 05 41 22 bd 9d 1a 89 bc
       0.06862652 0.006457181 -0.03961279 -0.016736323
0000c0 74 d5 e3 bc 01 43 14 3d 1d bd 13 bc 9e 67 3e bd
       -0.027811743 0.036196712 -0.009017256 -0.046485536
0000d0 4e c1 5b bc 4a 94 47 3c c4 52 65 3c 8b 29 5f 3c
       -0.013412787 0.012181351 0.013996784 0.013620744
0000e0 56 5b 06 3b d9 5e 64 3c 10 af 1b bc 9f c7 90 bc
       0.0020501218 0.013938629 -0.009502187 -0.017673312
0000f0 ae 52 37 bd bd 22 0c bd 73 3b 5c 3c e0 1e d0 bc
       -0.044756584 -0.034212817 0.013441908 -0.025405347
000100 5c 72 40 3c 8f 89 9f 3c ef e3 2c bb 84 30 b1 bc
       0.011746015 0.019474773 -0.0026380976 -0.02162958
000110 b0 96 34 3d 30 77 98 bc cf f8 44 3d ca 94 86 bc
       0.04408902 -0.01861152 0.048088845 -0.01642837
000120 86 6b 6e bc ef 75 5c 3c 58 8c fd bc 5b 5c db 3c
       -0.014552003 0.013455852 -0.03095071 0.026777437
000130 f1 cc fe bc 93 55 dc bc 4f bf 23 bc 88 db b0 3c
       -0.031103583 -0.026896274 -0.009994342 0.021589056
000140 cb 06 75 3d 2d 93 b8 bc 19 0f bb 3c ff 44 b4 bc
       0.05982093 -0.022531116 0.022834348 -0.022005556
000150 9f 8f fd bb 51 f1 fb 3c 16 6c 2a bd 03 09 67 3c
       -0.0077380682 0.030754717 -0.041606985 0.01410127
000160 1d 00 24 3d d2 2c 24 bc 89 ea 07 3d 6b 9e 9a bc
       0.04003917 -0.010020452 0.033182655 -0.018874368
000170 d1 ec b9 3c e6 77 4a bd af 87 3d ba 8d ee 04 bc
       0.02269593 -0.04943075 -0.0007229996 -0.008113516
000180 6f ca b2 3c 85 d6 0d 3d 84 38 7a 3d 60 aa 02 bc
       0.021825043 0.03462841 0.061089054 -0.007975191
000190 f0 f2 c2 bb db 52 8e 3c 94 9c ab bc 8e 96 20 3d
       -0.0059493706 0.017373493 -0.020948686 0.03920608
0001a0 5b f2 e5 bc 84 c5 82 3b 7c 2d 3c 3c 89 70 16 3d
       -0.028069666 0.003990831 0.011485454 0.036728416
0001b0 5f 08 c7 3c 19 da 4b bb 53 20 05 bd 4f 0e 35 3c
       0.024295984 -0.0031105338 -0.03250153 0.011050775
0001c0 cb 8b 4f 3c 7d a5 34 3c 5e ce df bc 6b e5 09 3d
       0.012667607 0.011025784 -0.027320083 0.033666056
0001d0 a6 2f 60 3d 19 9c 49 3b 08 4f 21 bd 89 1d be 3c
       0.05473294 0.0030763207 -0.03938201 0.023207443
0001e0 24 9f 18 bd a8 75 7d 3c fe bd 4b 3b 49 24 79 bc
       -0.037261143 0.015469946 0.0031088586 -0.015206405
0001f0 81 06 fe 3c ee 48 1e bc 95 27 18 3c f9 7c cd bc
       0.03100896 -0.0096609425 0.009286781 -0.025084006
000200 57 a7 b0 bb 33 eb e6 3b 27 7a 04 3d 9a bd ba bc
       -0.005391042 0.007047081 0.032343056 -0.022795487
000210 44 6d e2 3c cc f6 f4 bb 7a 31 e4 bc 5b 84 2d bd
       0.027639993 -0.0074757095 -0.027855624 -0.042362552
000220 a5 4b 5d bd 2c 0c 16 3d 21 09 57 bc fa 31 e5 bb
       -0.05402722 0.0366327 -0.013124735 -0.006994483
000230 8b 7f 5b 3b ce 46 fc 3c ff 53 f9 3c a3 12 a1 3c
       0.003349277 0.030795481 0.03043556 0.019662207
000240 19 8e 03 bd 80 16 dd bb 9e fd e8 bc da e3 04 bd
       -0.032117937 -0.006747067 -0.028441247 -0.03244386
000250 11 98 2e 3c 6f f9 09 3d b7 f9 14 bd de 43 f2 3c
       0.010656373 0.033685144 -0.03637096 0.029573377
000260 87 32 9a bc 2b 95 11 bc a6 f3 02 3d 72 50 6c bc
       -0.018822921 -0.008885662 0.031970643 -0.0144234765
000270 55 a7 d4 3a 17 97 f0 bc d4 5d eb 3c 55 d9 a7 bb
       0.0016224185 -0.02936892 0.028731264 -0.0051223435
000280 a2 2b a9 bc 53 a4 ce 3c f6 79 00 bd 2c 83 02 bd
       -0.020650689 0.02522484 -0.03136631 -0.031863376
000290 2e 1a e9 38 f3 93 03 3d b0 8b 91 bc fd 72 43 3c
       0.00011115182 0.032123517 -0.017766804 0.011929271
0002a0 5e 3f 16 3d 71 38 ee 3c 44 ce f6 bc cf ab 19 bc
       0.036681525 0.029079648 -0.030127652 -0.009379341
0002b0 a0 8f 62 bc 56 cd 35 bd fc 7f 2a 3a c4 73 c9 3c
       -0.013828188 -0.044385277 0.00065040565 0.024591334
0002c0 1b 3c d8 3c 42 8d 41 3c 78 c7 78 3b 09 55 e5 bc
       0.026395848 0.011813464 0.003796069 -0.02799465
0002d0 77 4b de 3c 05 7b e0 bc 5f c3 ef bc 5c 13 bb bb
       0.027135594 -0.02740241 -0.029267965 -0.005709095
0002e0 6c c3 c0 3c 8a a3 11 bd 68 71 08 3d 88 c8 86 3c
       0.023530684 -0.035556354 0.033311278 0.016453043
0002f0 17 d1 a2 bc 4f a5 2e bc 09 1a fc 3c 3f 3b 29 bd
       -0.019875092 -0.01065953 0.030774133 -0.041316267
000300 a4 d6 98 bc 94 a3 b5 3b 0b 6f 25 bd 6f 0d 09 3d
       -0.018657036 0.0055431817 -0.040389102 0.033460077
000310 24 96 ea 3c d2 b2 04 3d 25 f9 97 bc 4d 4b 24 3d
       0.028636046 0.0323971 -0.018551419 0.040110875
000320 a5 99 9a bc 8c f0 57 3d 5a 4f 0d bd 33 65 e4 bc
       -0.018872092 0.052719638 -0.034499504 -0.027880287
000330 44 06 19 3d ed a0 b8 3b 4c 48 71 3c c8 d2 c5 bc
       0.03735949 0.005634418 0.01472671 -0.02414836
000340 fa 44 c6 bc 28 01 93 bc f2 93 2c bd 6b 3e 34 bc
       -0.024202812 -0.017944887 -0.04213328 -0.01100121
000350 9d 59 93 3b dd c7 a9 3c 5a 67 01 3d f1 ad 59 3d
       0.0044967667 0.020725185 0.031592704 0.0531444
000360 34 9e 72 3c 6a 8b 29 bc 77 11 8c bc e8 6d 0c bd
       0.014808226 -0.01034818 -0.017098172 -0.034284502
000370 6d 25 04 bd af 01 b1 bb 58 f8 ec bb 0b 91 6a 3c
       -0.032262255 -0.005401812 -0.0072317533 0.0143168075
000380 b1 01 b6 bc 01 f0 25 3d 44 32 8b bc 6f b7 94 3b
       -0.022217603 0.04051209 -0.016991742 0.0045384686
000390 5f bb 1a 3d 9b be 1b 3d 96 95 e0 bc 86 23 09 3c
       0.037776347 0.038023572 -0.027415078 0.008370286
0003a0 eb c5 06 3b ac 5e 00 bd f1 6b 34 bc c1 95 83 3c
       0.0020564746 -0.031340286 -0.011012063 0.01606262
0003b0 27 91 ec bc 28 c6 19 3c 3b 2c b6 3c 23 d9 a8 bc
       -0.028877808 0.009385623 0.022237888 -0.020611351
0003c0 1d f0 14 3d 9f 73 39 bc bc ad f1 3b 22 25 16 3d
       0.036361802 -0.01131907 0.007375447 0.036656506
0003d0 bd a4 75 bc a3 4a 43 3c 30 00 a9 bc 1d ce 3e bc
       -0.01499289 0.01191965 -0.020629972 -0.011645821
0003e0 3a 2d 12 bc 72 4e 49 bc 44 b2 f8 bc a0 2b 1a 3c
       -0.008921916 -0.012286769 -0.030358441 0.009409815
0003f0 8b 66 34 3a 89 b2 e5 3c fa 43 57 bc 57 28 5c bb
       0.0006881735 0.028039234 -0.0131387655 -0.003359338

weight f4 [64]
000000 04 89 80 3f ae 51 7a 3f 86 7f 80 3f 75 17 7c 3f
       1.0041814 0.97780883 1.0038917 0.9847329
000010 3b 5a 7a 3f 2b b8 80 3f c6 90 81 3f 54 6b 7c 3f
       0.9779393 1.0056204 1.0122306 0.9860127
000020 80 b4 81 3f da 00 78 3f 1c 4d 7c 3f ab 5a 81 3f
       1.0133209 0.968763 0.9855516 1.0105795
000030 23 04 80 3f bb fe 7e 3f 1b b4 82 3f 8e 3c 7f 3f
       1.0001262 0.9960744 1.0211214 0.99701774
000040 32 9b 82 3f 4c 43 7b 3f 27 75 7c 3f e8 c6 80 3f
       1.0203612 0.9814956 0.9861626 1.0060701
000050 fd bf 80 3f 49 71 82 3f 55 08 80 3f a2 bd 80 3f
       1.005859 1.0190822 1.0002543 1.0057871
000060 1c 75 7f 3f 92 0c 81 3f 7f 50 7d 3f 84 f6 81 3f
       0.9978807 1.0081961 0.9895095 1.0153356
000070 e1 17 80 3f 04 1c 80 3f ce fc 80 3f 2d 5d 81 3f
       1.0007287 1.000855 1.007715 1.010656
000080 f5 50 7d 3f 3d 78 7f 3f 62 5b 7f 3f 65 27 7d 3f
       0.98951656 0.99792844 0.99748814 0.98888236
000090 f8 c7 7d 3f d6 b0 80 3f 77 5b 81 3f 81 7c 81 3f
       0.99133253 1.0053966 1.0106038 1.011612
0000a0 c1 ab 80 3f 91 93 80 3f 2f db 80 3f 63 2a 7b 3f
       1.0052415 1.0045034 1.006689 0.9811155
0000b0 2d 4d 7a 3f 01 da 81 3f d7 72 7e 3f b2 66 80 3f
       0.9777401 1.0144655 0.9939398 1.003134
0000c0 81 ee 7d 3f 0a a7 7f 3f d8 13 80 3f 85 ee 7f 3f
       0.99192053 0.99864256 1.0006056 0.99973327
0000d0 50 8a 81 3f 0b 1d 7e 3f 8f fd 80 3f 53 8a 7d 3f
       1.0120335 0.99263066 1.007738 0.9903919
0000e0 37 ad 80 3f 97 a4 80 3f b9 f7 80 3f 7b 6b 80 3f
       1.0052861 1.0050229 1.0075599 1.00328
0000f0 b5 5c 7e 3f 11 af 7b 3f 62 b7 7d 3f b1 ea 7d 3f
       0.9936021 0.98314005 0.99107945 0.99186236

bias f4 [64]
000000 61 90 1e bc 98 32 28 bd df ba 76 bc 61 78 5a bc
       -0.009677977 -0.041063875 -0.015059202 -0.013334365
000010 91 45 ef bc 2e 50 24 bc c8 91 d9 bb 56 0a a8 bb
       -0.029207977 -0.010028882 -0.006639693 -0.0051281853
000020 3c 95 db 3a f4 e6 04 bd f1 07 ab bc 94 f1 fc bb
       0.0016752849 -0.032446817 -0.02087781 -0.007719228
000030 d4 05 11 bc 21 da 22 3c a7 50 21 bc c4 b4 2f 3c
       -0.008851487 0.009939701 -0.009845889 0.01072425
000040 16 09 db bb 38 11 dc bc 7b f8 26 bc 18 53 ab bb
       -0.0066844327 -0.02686368 -0.010191078 -0.0052284114
000050 44 b1 bd bc 35 b5 a2 bc d0 83 91 ba 6a 98 a1 bc
       -0.023155816 -0.019861797 -0.0011101905 -0.019725997
000060 60 94 87 bc f7 1b 84 3c 7a c8 dd bc ef 05 81 bc
       -0.016550243 0.016126616 -0.027073134 -0.0157499
000070 67 4f 87 bc ef d8 96 bb 5e 61 61 3b 6b 35 39 b9
       -0.016517354 -0.004603497 0.003439031 -0.00017662875
000080 ab 7b ef bc 47 94 09 3c 3d d2 bd bc dc 89 ef bb
       -0.029233774 0.0083971685 -0.023171538 -0.0073101353
000090 c1 45 a2 3a 84 af 5b bc 50 af 7c 3c 83 60 86 bc
       0.0012380407 -0.013408545 0.015422657 -0.016403442
0000a0 37 a4 87 bc 80 8a c6 bc 2b c8 00 bc c5 0b 9a bc
       -0.016557796 -0.024235964 -0.007860224 -0.01880444
0000b0 f7 cd bd bc d3 04 80 bc 75 cb d8 ba 7a f1 91 bc
       -0.0231695 -0.0156273 -0.0016540127 -0.01781534
0000c0 bf 04 34 3b 31 5d f0 bb 8b 8b c9 bc 27 a3 92 b8
       0.002746865 -0.007335328 -0.024602672 -6.992212e-05
0000d0 de a5 2a bc 04 2b 8b 3b 74 ef 50 3b 10 ab 86 bc
       -0.010415522 0.004247071 0.0031881006 -0.01643899
0000e0 3f 7b b4 bc 07 a3 dd bb ca e3 84 bb fe 25 73 bc
       -0.022031425 -0.006763819 -0.004055475 -0.014840601
0000f0 0b 6a bf bc bc de e6 bc 2e 89 8e 3b e9 af 8a bc
       -0.023365995 -0.02818238 0.004349849 -0.016929584

running_mean f4 [64]
000000 9d fe 04 bf dc d2 12 3f 53 5f 0c bf ab b0 6e bf
       -0.5195101 0.57352996 -0.54832953 -0.93238324
000010 e4 68 21 3e 85 8d bc be 5f d7 cd bd 32 21 3c bf
       0.15762669 -0.3682672 -0.100508444 -0.7348815
000020 db fe 2b 3e b5 51 cb 3e d6 50 9b 3e 91 9b 0e 3f
       0.16796438 0.39710775 0.3033511 0.55706125
000030 32 59 ca bc c8 8b 71 be 98 cd b7 3e e4 ae 8a 3e
       -0.024700735 -0.23588479 0.35899043 0.27086556
000040 f6 e3 b9 bd 18 63 b4 be ab 85 64 3f c1 63 d6 bd
       -0.09076683 -0.35231853 0.8926646 -0.10468245
000050 21 23 89 be 75 05 c8 bd 3e 08 4c be ef aa 7f 3e
       -0.26784614 -0.09766666 -0.19925019 0.2496755
000060 29 af 16 3f f4 cb dc be b2 9b c8 be 84 83 7a 3e
       0.58861023 -0.43124354 -0.39181286 0.24464232
000070 39 50 f0 be 80 1c 21 3e 56 15 c1 be 9b 4f 04 3c
       -0.46936205 0.15733528 -0.3771159 0.00807562
000080 c7 e0 0c 3f 07 8d 83 be 48 09 16 3e 7d 6c 92 be
       0.55030483 -0.25693533 0.14651978 -0.28598395
000090 5c 78 1e be dc 5e 85 be 43 3c f1 bd c1 0b 6b bd
       -0.15475601 -0.26048934 -0.11779072 -0.057384256
0000a0 15 28 1b 3e 9b e3 f1 be 18 88 04 be f8 d0 34 3f
       0.15152009 -0.47243962 -0.1294254 0.7063136
0000b0 c0 01 27 3f 28 4a 26 3f 18 18 7f 3e f6 2a 11 3e
       0.65237045 0.64956903 0.24911535 0.14176545
0000c0 2f eb 30 3f 51 84 46 3e 5f ce 0b 3e e2 42 c2 be
       0.6910886 0.19386412 0.13652943 -0.37941653
0000d0 22 12 42 3e 0e 2d e4 be 5b 98 12 3f ff 7a 90 3d
       0.1895223 -0.44565624 0.57263726 0.0705471
0000e0 f3 51 03 3e 69 c2 f2 be 58 12 b6 be ed 8c a5 be
       0.1282423 -0.47413948 -0.3556087 -0.3233408
0000f0 49 67 26 3f bb 85 b5 3d 43 2e 69 bf e8 fb 8b 3e
       0.6500135 0.08863398 -0.91086215 0.27340627

running_var f4 [64]
000000 0d 99 52 3f bf 90 74 40 a1 a1 8d 3f 5f f3 b5 40
       0.82264787 3.8213346 1.106495 5.6859584
000010 1e 6c 2b 40 90 64 92 3f fc 21 14 3f 45 47 5d 40
       2.678474 1.1436939 0.57864356 3.457475
000020 c0 69 ff 3e 16 1d 6f 40 62 d7 8d 40 25 57 6a 3f
       0.49885368 3.7361503 4.432542 0.9153922
000030 2d 7e 7e 3f 30 be 34 3f e7 e4 94 3f 6d 59 69 3f
       0.9941128 0.70602703 1.1632355 0.9115208
000040 58 27 3e 3f a8 5c 87 3f 44 45 49 40 67 a4 a6 3f
       0.74278784 1.0575151 3.1448526 1.3018922
000050 8a 6c 30 3f e9 64 dd 3e d3 7b c5 3e 4c 22 7f 3f
       0.6891562 0.4324105 0.38571033 0.9966171
000060 68 27 3f 40 a1 13 23 40 fe 67 95 3f 7d 90 c9 3f
       2.9867802 2.548073 1.1672361 1.5747219
000070 c9 b4 43 3f da c6 11 3f 95 df 0d 3f e1 f2 57 3f
       0.7644773 0.5694405 0.55419284 0.8435498
000080 54 22 48 3f 0d a9 8b 3f bd 1e b9 3f 2d 9d 44 40
       0.7817738 1.0910965 1.4462506 3.0720932
000090 26 f1 60 3f ee 91 b0 3f 3a c9 1b 3f 62 8b 59 3f
       0.87867963 1.3794534 0.6085392 0.84978306
0000a0 69 9a be 3f 62 dd 68 3f 61 4f 83 3f 36 0c 9b 40
       1.4890872 0.90962803 1.02586 4.8452406
0000b0 63 01 68 40 c3 1b cb 3e 3f 19 91 3f 5c 73 44 40
       3.6250846 0.39669618 1.133583 3.069541
0000c0 bb 06 82 40 01 37 15 3f 3d db ab 3f 3e b6 0c 40
       4.0633216 0.58287054 1.3426281 2.1986232
0000d0 f2 06 40 3f 66 04 02 40 d7 6e ee 3e 9b 0b 64 3f
       0.750106 2.0315185 0.4656894 0.8908021
0000e0 e7 97 af 3f c2 33 87 3e 54 7e 5b 3f 7c 7a 85 3f
       1.3718232 0.26406676 0.85739636 1.0428004
0000f0 21 24 8f 40 08 b9 4c 3f 95 cb 7f 40 ac 09 43 3f
       4.4731603 0.79969835 3.9968007 0.76186633

weight f4 [64, 64, 3, 3]
000000 f0 51 a4 3c d5 20 35 3b f2 25 db 3b 3a 25 02 bc
       0.020058602 0.0027637978 0.006687873 -0.007943446
000010 87 9f 97 3c e0 5d 53 3d 28 18 4f bd 6f 2a cd bc
       0.018508686 0.051603198 -0.050560147 -0.025044648
000020 3b 29 68 bb df 36 b9 3c 0c 39 4a 3c aa e2 ea bb
       -0.0035424966 0.022609172 0.012342703 -0.0071681337
000030 6e 71 d8 bb da 3c 17 bd d9 63 88 bc b7 9d c3 3c
       -0.0066053187 -0.036923267 -0.016649174 0.023878915
000040 31 2e 6a 3c 3d dd 0b bc f8 ba 1e ba 4f 65 8c 3c
       0.014293239 -0.008536634 -0.0006055082 0.017138151
000050 b8 81 d2 bc d8 26 01 3b 6e d0 a3 3c 9a ae 37 bd
       -0.02569662 0.001970699 0.019996848 -0.044844247
000060 48 4c cd 3c 2f 16 cf 3c 22 99 b5 3c ec 2f 92 bc
       0.025060788 0.025279133 0.022167746 -0.017845117
000070 21 b7 f6 bc 40 cb 3f 3d 52 a8 1e 3d ff 15 06 bd
       -0.03011662 0.046824694 0.03873474 -0.03273582
000080 74 55 2c 3d 1f 28 a0 bc 3c 3a 9c 3c 2c 1a b7 3b
       0.042073682 -0.019550381 0.019070737 0.0055878367
000090 45 d9 5e bc ec 30 98 3c 46 65 88 bc 61 2b 08 bd
       -0.013601606 0.018578015 -0.016649853 -0.033244494
0000a0 d6 3c 30 bd 18 8a 72 3c 59 3e 28 3c f6 56 96 bc
       -0.043026768 0.014803432 0.010268771 -0.018352013
0000b0 6f 07 9e 3c 30 f6 dc bc fe af 21 3d c5 d0 ec 3c
       0.019290654 -0.02697286 0.03947448 0.028908143
0000c0 c8 9d d3 3c 25 4a 7c bc 70 9e 23 3d 97 71 27 3d
       0.025832072 -0.015398537 0.03994602 0.040879812
0000d0 47 43 10 3d 05 8a 0e bd f4 c2 14 bd b2 59 e9 3b
       0.03522041 -0.034799594 -0.036318734 0.007121288
0000e0 b7 7f d2 ba 78 49 0c bc f0 1a fb bc e1 61 06 3c
       -0.001605979 -0.008562438 -0.030652493 0.008202047
0000f0 03 c6 2c 3c aa 74 9d 3c d9 c6 f9 bb e6 1c 45 3c
       0.010545257 0.019220669 -0.0076225814 0.012030816
000100 d0 73 de 3c cc f3 dd bc e9 c2 aa bb 0e da 17 bd
       0.027154833 -0.02709379 -0.0052112234 -0.037073188
000110 ab 48 1c 3d 1d a8 91 bb 81 5e 28 3b f6 bd dd 3c
       0.03815524 -0.0044450895 0.0025691094 0.02706812
000120 97 f3 16 bc 3f 5b 9a 3c 1e f1 09 bd a7 79 38 3d
       -0.00921335 0.018842338 -0.033677213 0.04503789
000130 13 95 88 bc 48 5c 0b 3a 40 f5 46 3d 89 17 2b b9
       -0.016672647 0.000531618 0.048573732 -0.00016316598
000140 9d a1 b7 bb cd 5c ae 3c c8 37 e2 bc f9 f4 b6 3c
       -0.0056039826 0.021284485 -0.02761449 0.022333609
000150 cd 1a 28 3c e3 84 81 3b 9e 3a ca ba 30 cb 10 bd
       0.010260296 0.003952609 -0.0015428846 -0.035350025
000160 76 de bb 3a c9 e2 58 3c ad 77 65 bc be b7 f1 bc
       0.0014333266 0.013237664 -0.014005584 -0.02950656
000170 77 e2 77 bc 90 53 1c bd 51 d3 30 3c db f0 3e bd
       -0.015129677 -0.03816563 0.010792569 -0.046616416
000180 34 73 fc bc e6 fc 1e 3c 2f 8f 53 bb 0c 97 d6 bc
       -0.030816652 0.00970385 -0.003228139 -0.026195072
000190 52 0b b0 3c d8 50 50 bd ad 67 d0 3c f7 d4 23 3d
       0.021489773 -0.05085835 0.025440061 0.03999802
0001a0 a9 71 98 3c 76 a0 08 3d 8a 73 ec bb 8a dd 7b 3c
       0.018608885 0.033356152 -0.0072159218 0.015372643
0001b0 d6 de 12 bd e2 e2 13 3d b2 2e db bc 1c 3c d6 bc
       -0.035857044 0.036105044 -0.026755664 -0.02615171
0001c0 82 ba 94 bc 07 67 1a 3c c2 34 34 3d ac b1 1a 3b
       -0.01815534 0.009423978 0.043995626 0.0023604436
0001d0 d6 e1 91 3c 0c 84 7b bc 22 25 2b bc ce 46 20 3c
       0.017807882 -0.015351307 -0.010445865 0.009782506
0001e0 b9 95 dc 3b f1 a3 a7 3b cc 7f 9c b9 14 7e 86 bc
       0.0067317155 0.005115979 -0.00029849855 -0.01641754
0001f0 d8 c5 06 bd ce 13 16 3c 29 a2 98 bb 6c cc b6 bc
       -0.032903522 0.009159995 -0.004658003 -0.022314273
000200 08 1a 25 bd 31 8f 24 bc f4 1d b5 3b b8 82 d0 bc
       -0.04030803 -0.010043905 0.0055272523 -0.025452957
000210 d9 04 9f bc 29 b4 c0 bb 8c 7c af bc 82 89 1e 3d
       -0.019411491 -0.0058808518 -0.021421693 0.038705356
000220 b8 10 fa 3a 13 1d 8d bc a6 94 aa bc 7c 3a 14 3d
       0.0019078469 -0.017225778 -0.020822834 0.036188588
000230 cc dc 44 bd 33 14 06 3d e6 40 33 3a 32 b4 3f bd
       -0.04806213 0.032734107 0.0006837979 -0.046802707
000240 41 4c 01 3d 43 71 74 3c 9d 28 8d 3b 60 5d 64 3c
       0.031566862 0.014919582 0.00430782 0.013938278
000250 24 5a d4 3c 7c 16 16 bc 30 fa 8e 3b 89 d7 05 bb
       0.025921889 -0.009160634 0.004363321 -0.0020422658
000260 05 1f 83 3b b5 35 19 3b 7c 48 4b 3c 50 d3 37 bc
       0.0040015006 0.002337796 0.012407418 -0.011219814
000270 03 e8 b5 3b ef 98 bd 3c cb 4a 33 bc b3 d0 41 3d
       0.0055513396 0.023144213 -0.010943125 0.04731817
000280 9a bd 97 3a 49 56 73 3c eb 7c 8c 3c 36 aa e7 3c
       0.0011576891 0.014852115 0.01714941 0.028279405
000290 41 18 12 bc 1f d7 0a 3d 78 57 09 bc 7c 10 59 bc
       -0.008916915 0.03389656 -0.008382671 -0.013248559
0002a0 24 6c 21 bd 9c 13 a5 3c ec fb 9c 3c a5 f3 a7 3c
       -0.03940977 0.020150952 0.019163094 0.020501921
0002b0 37 61 36 3c 69 f1 59 bd 0b 93 3a 3d 36 c2 0f 3c
       0.011131576 -0.053208742 0.045550387 0.008774331
0002c0 34 5f b9 bc 39 3b 0a 3d 30 68 84 3c dd e6 c2 3c
       -0.022628404 0.033747885 0.016162962 0.023791725
0002d0 6e c0 ea 3c 6f 1d 1f bd 0a 58 56 3c ca c5 83 bc
       0.02865621 -0.03884643 0.013082514 -0.016085524
0002e0 ad ce 28 3b bc a2 99 3c 72 f0 ea bc 3a 14 41 3d
       0.0025757954 0.018754356 -0.028679106 0.04713843
0002f0 ed ff 07 3c 6b 09 a6 3c 9f 0c 16 bd 2d ec fd bb
       0.008300764 0.020268163 -0.03663313 -0.0077491016
000300 c5 76 dc b9 cf 47 39 3d f6 4d cd bc 04 a3 f1 3c
       -0.0004205016 0.045234498 -0.025061589 0.029496677
000310 d8 d8 0d 3d 43 f4 08 bd f0 cd 12 3d e0 fe b6 3b
       0.034630626 -0.03343607 0.03584093 0.0055845827
000320 e7 bb c8 3c 3c 6e ac bc bf aa 07 3d 16 c9 12 3c
       0.024503661 -0.021048658 0.03312182 0.008959075
000330 06 45 c9 bc 1f 20 34 3c 91 cf 66 3c b0 f8 42 bc
       -0.024569046 0.010993986 0.014087574 -0.011900112
000340 c8 22 c4 bc c7 63 71 3c 10 ed 7d 3c 10 52 0d bd
       -0.023942366 0.014733261 0.015498415 -0.03450209
000350 aa a3 da 3b 43 7f 0e 3c a6 d3 80 bb d7 f1 bf 3c
       0.0066723423 0.008697334 -0.0039314805 0.023430748
000360 73 97 34 3c a6 85 f3 3c 9a 25 8d bc b1 b3 74 bc
       0.011022436 0.029726814 -0.017229844 -0.01493542
000370 1d 4d 86 bc 99 07 d2 39 ec 5c f3 3b b3 b3 86 bc
       -0.016394192 0.00040059982 0.0074268486 -0.01644311
000380 5d 36 6f 3c 52 fc 1a 3d f5 93 81 3c b9 b4 89 3c
       0.014600364 0.037838288 0.015817622 0.016809808
000390 c3 ff 1a bd 3e a3 0c bd 70 76 ad bc 89 43 5e ba
       -0.03784157 -0.034335367 -0.02117464 -0.00084786915
0003a0 a8 ba 53 bc ba 5d df 3c b8 40 d2 3c 9b 41 aa 3c
       -0.01292292 0.027266372 0.025665626 0.020783236
0003b0 4c e6 ba bc 2b 8b ae bc b6 1b f5 bc d3 36 dd bc
       -0.022814892 -0.021306595 -0.02992044 -0.027003681
0003c0 5c 9c 56 3c 22 b2 45 3c fd 49 1a 3d c2 59 61 bb
       0.013098802 0.012066396 0.037668217 -0.0034385775
0003d0 c0 3e 9d bb 14 34 c1 3c e5 f3 40 3b 1c 15 cc 3b
       -0.00479874 0.023584403 0.0029442247 0.0062281024
0003e0 df b3 e0 bc 4a b2 fc bc 01 8a 88 3c 47 df 64 bb
       -0.02742952 -0.030846734 0.016667368 -0.0034923123
0003f0 66 11 fb 3c f0 c6 86 3a 4b d9 c2 b8 a6 f4 bd 3c
       0.030647945 0.0010282677 -9.291115e-05 0.023187947

weight f4 [64]
000000 b2 1c 80 3f 31 9f 82 3f b4 60 7d 3f 2c 2b 7f 3f
       1.0008757 1.0204831 0.9897568 0.9967525
000010 2d b4 80 3f 62 4a 7b 3f 4a c2 84 3f de 79 7e 3f
       1.0054985 0.98160374 1.0371792 0.99404705
000020 80 b5 7d 3f fe 95 7c 3f 24 54 81 3f e4 2b 81 3f
       0.9910507 0.9866637 1.0103803 1.0091519
000030 c9 9b 81 3f c4 7e 80 3f 3a a1 7e 3f 50 aa 7e 3f
       1.0125667 1.0038686 0.9946476 0.99478626
000040 09 d3 7d 3f b1 7c 82 3f 6e 5c 7f 3f bb 79 7a 3f
       0.9915014 1.0194303 0.9975041 0.97841996
000050 31 65 7f 3f 58 ba 7a 3f 76 12 81 3f 4e e4 7c 3f
       0.9976378 0.9794059 1.0083759 0.98785865
000060 26 19 7e 3f 71 1b 79 3f ed 10 80 3f 0c a2 80 3f
       0.99257123 0.973075 1.0005165 1.0049453
000070 e5 a0 82 3f 27 ad 80 3f 8b 72 7c 3f 0c 42 81 3f
       1.0205351 1.0052842 0.9861228 1.0098281
000080 14 f8 80 3f c6 af 80 3f 78 b0 80 3f 00 6f 80 3f
       1.0075707 1.0053642 1.0053854 1.0033875
000090 f8 0d 80 3f 9a 08 80 3f 9f ae 81 3f 18 79 80 3f
       1.0004263 1.0002625 1.0131415 1.0036955
0000a0 56 03 7f 3f b4 83 7d 3f 2f da 79 3f 18 21 7d 3f
       0.99614465 0.9902909 0.97598547 0.9887862
0000b0 c8 65 80 3f c7 b6 80 3f 12 7a 7e 3f 27 7c 82 3f
       1.0031061 1.0055779 0.99405015 1.0194138
0000c0 dc 81 81 3f e7 13 7d 3f 08 83 7d 3f 4f 79 7d 3f
       1.0117755 0.98858494 0.9902806 0.9901323
0000d0 68 1c 7e 3f 00 2f 80 3f fc ef 7f 3f 9c 00 7f 3f
       0.99262094 1.0014343 0.9997556 0.99610305
0000e0 33 44 80 3f 0e cd 7c 3f b7 22 80 3f b3 cf 80 3f
       1.0020813 0.9875039 1.0010594 1.0063385
0000f0 e4 9e 7c 3f 42 5e 7e 3f d2 17 7c 3f e3 28 7e 3f
       0.9867995 0.99362576 0.98473847 0.9928114

bias f4 [64]
000000 17 db 04 bb e8 b9 70 ba 07 66 d6 bc 95 d4 75 3b
       -0.002027219 -0.00091829756 -0.026171697 0.0037510742
000010 21 c0 a8 3c 46 d7 94 bc ef ed 2e 3c cd 6c af bc
       0.020599427 -0.018169057 0.010676845 -0.021414185
000020 f4 92 92 3a 01 c2 84 bc d2 98 6a bc 73 83 f5 bc
       0.0011182711 -0.01620579 -0.014318662 -0.029969906
000030 ba 35 c9 bc 68 c2 38 bb a9 b5 ad bc b7 c6 9a bc
       -0.024561752 -0.0028192047 -0.021204786 -0.018893583
000040 f9 20 18 bd eb 21 89 bc 6c 85 27 bc 4b bf 0c bd
       -0.03714082 -0.016739806 -0.010224681 -0.03436212
000050 5c 14 1b bd 26 30 b4 bc 49 47 1a bc b8 01 cd bc
       -0.037861213 -0.021995615 -0.00941641 -0.025025234
000060 83 ea 46 bc f8 0c 2c bd 6d f0 87 bc f9 0f 0b 3c
       -0.012140873 -0.042004555 -0.016594136 0.008487695
000070 df 5b b4 bc df 6f 3e bd 79 89 5d bc 82 a2 08 bd
       -0.022016464 -0.046493407 -0.013521546 -0.033358105
000080 e3 56 ed bc d0 ec a8 bc e5 c7 46 bd bb f1 b3 bc
       -0.028972095 -0.020620733 -0.048530478 -0.021965852
000090 32 55 0e bd fc f1 15 ba 4c fd 93 bc ac 29 55 bc
       -0.034749217 -0.00057199574 -0.018065117 -0.013010424
0000a0 d4 3d 89 bc c4 a1 44 bd 02 91 39 bd 37 e1 1c bc
       -0.016753115 -0.048005834 -0.045304306 -0.00957518
0000b0 ff 92 04 bb 5a 54 5b bd 1d bb 64 3b 9f 95 9d 3b
       -0.0020229218 -0.05354724 0.0034901567 0.004809096
0000c0 3d 39 3a bd 87 08 42 bc 71 7f 10 bd 12 b0 2f bd
       -0.045464743 -0.011842853 -0.035277788 -0.042892523
0000d0 39 dd cc bb 39 09 1e bd e3 6d ed bc ea 36 8c bc
       -0.0062519577 -0.038583014 -0.028983062 -0.017116029
0000e0 14 eb 0f bd fb 80 ca bc 30 4f 99 3b 53 01 ad bc
       -0.035136297 -0.024719706 0.0046786293 -0.021118795
0000f0 8e a8 4e bd 61 8e 84 3b 72 b9 b0 bc da 9f b8 ba
       -0.050453715 0.004045293 -0.021572802 -0.0014085725

running_mean f4 [64]
000000 25 d4 1e 3e 1c d2 fc be da a2 c7 be 98 eb c6 be
       0.15510614 -0.4937905 -0.38991433 -0.3885162
000010 2d 8c 92 bf 42 62 80 bf 06 ea da 3d f8 b9 c1 3e
       -1.1449028 -1.0029986 0.10689168 0.37837195
000020 e7 10 f4 be d9 c9 62 bd 0a 4a 9d be ba 6d 0e 3f
       -0.47669145 -0.05536828 -0.3072055 0.5563618
000030 3f 5c a8 be 50 57 d6 3d 3c 8c f6 3d e8 da 3a 3e
       -0.32882878 0.10465872 0.12038466 0.18247569
000040 e7 68 08 3e 73 44 b1 3e 29 e2 24 3e 05 8f 7e 3f
       0.13321267 0.34622535 0.16101898 0.9943698
000050 28 d0 42 3f bd e7 36 bf 93 66 3e be 36 d7 df 3e
       0.7609887 -0.71447355 -0.18593816 0.4371888
000060 7f 86 75 bd bf 67 94 3e 8f fe 10 bf fb c6 9f bd
       -0.05994272 0.28985402 -0.56638426 -0.078016244
000070 88 61 19 3e 87 48 a1 3e 72 64 52 3f 46 71 82 3d
       0.14978611 0.31500646 0.8218452 0.063692614
000080 4b e9 72 3d 76 79 22 3d 37 f1 e3 3e 16 3c ed be
       0.059304517 0.039666615 0.4451997 -0.46334904
000090 2a 70 c9 3e 0f b1 98 bc a3 d3 5d 3e 5f 55 81 3c
       0.39343387 -0.018639116 0.21662764 0.015787778
0000a0 25 2b e8 be 0c 3e 8b 3d 29 e7 3b 3f 27 c6 a9 be
       -0.45345417 0.06798944 0.733996 -0.3315899
0000b0 a8 d0 50 bd e8 36 00 3f 66 a0 cc be 57 89 03 bd
       -0.05098024 0.5008378 -0.39966124 -0.0321134
0000c0 d7 2a b8 3e d2 f5 36 bf b2 c6 18 3e d7 b1 11 3f
       0.35970184 -0.7146884 0.14919546 0.5691199
0000d0 14 79 2c bf ee 5d af bc 81 8a e0 3e 56 e6 c6 3e
       -0.6737225 -0.021407094 0.4385567 0.38847607
0000e0 de 0b e5 3e 18 29 f0 be aa 16 d0 be 9e 3b 75 be
       0.44735616 -0.46906352 -0.4064229 -0.23948523
0000f0 2e 58 13 3f 9f 09 5e be bd 98 46 3f 56 e9 fc be
       0.57556427 -0.21683358 0.7757681 -0.4939677

running_var f4 [64]
000000 06 d4 60 3f 7f 9f 5a 3f c3 e7 4b 3f d9 bb 8c 3f
       0.8782352 0.8539962 0.79650515 1.0994827
000010 d3 35 10 40 02 58 56 40 44 5b 0d 3f 13 38 dd 3e
       2.2532852 3.3491216 0.55217385 0.43206844
000020 db e2 dd 3f ad 3c 44 3f 41 f4 92 3f 39 31 87 3f
       1.7334856 0.76655084 1.148079 1.0561897
000030 13 a2 b8 3f 71 11 5c 3f a3 25 5c 3f c4 cc 5c 3f
       1.4424461 0.85964113 0.8599493 0.8624995
000040 ed 6f 23 3f 68 02 b9 3e 0d dd 1c 3f 06 5a 78 40
       0.6384266 0.36134648 0.61274797 3.8804946
000050 04 2e 45 40 f8 0e fb 3f f5 bd 42 3f ca 6e b3 3f
       3.0809336 1.9613943 0.760711 1.4018185
000060 2d ed 4c 3f aa 70 5e 3f 1a 65 3d 40 34 33 30 3f
       0.800494 0.8689066 2.9592957 0.6882813
000070 6a 15 9d 3e 21 05 ad 3f 2e 88 0a 40 d9 1b 8a 3f
       0.306804 1.351719 2.1645617 1.0789748
000080 cc 46 7a 3f a3 c4 d9 3e b7 1e a6 3f 46 27 c3 3f
       0.9776428 0.42532834 1.2978123 1.524636
000090 e9 ff 83 3f 64 3d f7 3e 1d 28 08 3f 43 05 07 3f
       1.0312473 0.48289025 0.5318621 0.52742404
0000a0 85 d9 a2 3f 7f 6e e5 3e e7 8b af 3f 44 51 58 3f
       1.2722632 0.44810864 1.371457 0.84499
0000b0 09 66 06 3f b0 28 d2 3f e0 6a 3e 3f b9 07 4c 3f
       0.52499443 1.6418667 0.7438183 0.79699284
0000c0 f7 b6 4e 3f f3 43 26 3f f3 d1 9c 3e 5d f3 e7 3f
       0.8074793 0.6494743 0.3062893 1.8121144
0000d0 d3 42 91 3f 4d 6a 5e 3f 0c 3d e9 3f 94 25 23 3f
       1.1348518 0.8688095 1.8221755 0.63729215
0000e0 fc 76 a3 3f 60 01 1f 3f c1 7c cf 3f b0 7f ad 3f
       1.2770686 0.62111473 1.6209947 1.3554592
0000f0 a2 96 3a 3f 3f d2 b9 3f 4d cd 83 3f f8 02 b2 3f
       0.728861 1.4517287 1.0297028 1.3907156

weight f4 [128, 64, 3, 3]
000000 a8 49 a7 bc 56 15 1c 3d cd a1 13 bd 6b 21 f7 3c
       -0.020420864 0.038106285 -0.036042977 0.030167302
000010 23 f0 95 3c 9c da 1b 3c 4a 9e 0f 3d 9c 7c 28 bc
       0.018302983 0.00951257 0.035063066 -0.010283615
000020 01 98 85 ba 65 6c 8a bb d1 25 0d bc 13 1e ef ba
       -0.0010192395 -0.0042243474 -0.008614973 -0.0018243216
000030 be 00 fc bc 3c 4c 23 3b 0a 52 d8 bb cd 7f 9b bb
       -0.030762073 0.0024917265 -0.0066015767 -0.0047454596
000040 b8 89 5b 3c d6 4f 35 3d 69 d2 9d 3b a9 dc ac bb
       0.013399534 0.04426559 0.0048163426 -0.005275328
000050 f5 07 21 bc 62 b4 86 bb 57 12 f8 bc 5f 54 ce 3c
       -0.009828557 -0.004110859 -0.030282183 0.025186716
000060 29 b7 f1 bc 47 69 ff 3a 14 11 50 3c a3 0d e1 3c
       -0.029506283 0.0019486331 0.012699384 0.027472323
000070 35 10 ab bc 57 5e 5d 3c ff 8d f0 3c 1a 95 14 3d
       -0.020881752 0.013511262 0.029364584 0.036275007
000080 90 46 b8 3c b3 d1 4d bc 9d 83 6d 3b df 2c 6b bb
       0.022494584 -0.012562203 0.0036241778 -0.00358849
000090 87 f7 68 3b 1c 68 ad bc d3 ee 1e bd d4 c0 af 3c
       0.0035547928 -0.021167807 -0.03880198 0.021454252
0000a0 34 1b 49 bd 00 3c 53 bd 88 45 05 bd ca 54 b8 3b
       -0.04909821 -0.051570892 -0.032537013 0.005625342
0000b0 4a c3 3e 3d 5e 7b e2 bc 4f 37 95 bc db df 07 3d
       0.04657296 -0.027646717 -0.01821485 0.03317247
0000c0 30 03 ac 3b f6 99 a1 3a 6d a2 ac 3c da 41 b9 b9
       0.0052494034 0.0012329209 0.021073544 -0.00035335013
0000d0 19 db 39 3d d5 d7 45 3c 9d ad 50 bc d5 6e 80 bc
       0.045374963 0.012075384 -0.012736705 -0.015677849
0000e0 6e d3 d7 3b 31 c5 3c bc 49 9f a2 bc a6 94 e7 3c
       0.0065864837 -0.0115216235 -0.019851344 0.028269123
0000f0 4a b2 1c bc 8a ca 36 3b bd e9 48 3c af d1 0a bd
       -0.009563992 0.0027891719 0.012262759 -0.033891376
000100 ea 2a 55 3d 47 e0 69 3d fa 1e c3 3c 95 c7 22 3d
       0.05204288 0.057098653 0.023818482 0.039741118
000110 28 38 bf bb 80 70 95 3c 33 70 81 bc 97 30 20 3d
       -0.005835552 0.01824212 -0.015800571 0.03910884
000120 ca 94 32 3d ca 48 ce bc cc 53 9c bc 16 57 ca 3c
       0.043598928 -0.025181193 -0.019082926 0.024699729
000130 d6 11 a9 3c e9 2e 1f bd 3a 93 4e 3c 11 6a 86 bc
       0.020638388 -0.038863096 0.012608344 -0.016407998
000140 84 32 7b 3c 03 46 a5 bc 77 76 39 3d e4 29 93 3c
       0.015331868 -0.020174986 0.045278993 0.017964311
000150 c4 c6 ad 3c 10 2a 96 3c 42 f7 1c 3d 6b bf 16 3d
       0.021212943 0.018330604 0.03832174 0.036803644
000160 88 03 db 3c a7 d7 de bc 45 c4 32 bd 6c a2 36 3c
       0.026735082 -0.02720244 -0.04364421 0.011147123
000170 2d 65 b8 bb ae 3c f9 bc 71 d7 3e bd f8 01 22 bd
       -0.0056272955 -0.030424442 -0.04659218 -0.03955266
000180 32 b6 7c bc 6a 88 1f 3c 44 27 db bc 87 ce db 3c
       -0.015424298 0.0097371135 -0.026752122 0.026831878
000190 86 b1 de bc 76 2d cb 3c 8d e5 3a 3c 8d a4 97 3a
       -0.02718426 0.02480195 0.011407268 0.0011569426
0001a0 0a de ce bc 5b 63 28 3c 9f 1f 09 3d 93 32 1d bd
       -0.02525236 0.010277594 0.03347742 -0.03837831
0001b0 ec 46 10 bd 71 62 86 3c d8 7c ff bc 53 19 bd bb
       -0.035223886 0.016404362 -0.03118746 -0.005770841
0001c0 c5 83 f5 bc d5 58 b7 bc a5 3c 61 bc a7 b0 71 bb
       -0.02997006 -0.022381226 -0.013747369 -0.0036878975
0001d0 1d 5f 54 bc d2 3e b1 3b a9 00 65 bc 5e 19 a8 bc
       -0.01296213 0.0054091 -0.013977208 -0.020519909
0001e0 cb 4a 9c bc 04 19 27 bd 6a 60 01 bd 79 06 e1 bc
       -0.019078633 -0.04079534 -0.03158609 -0.027468907
0001f0 90 b4 c5 3c 26 80 94 3c b4 6d b5 3c 14 b3 00 3d
       0.02413395 0.018127512 0.022147037 0.031420782
000200 38 9e 18 3d e3 7f 3b 3c 26 e8 3d 3d ad c2 c1 3c
       0.037260264 0.011444065 0.046363972 0.023652399
000210 38 c3 4e bc 86 f1 39 3d 7e 29 e6 bb 82 12 78 bc
       -0.012619786 0.04539635 -0.007023989 -0.015141131
000220 2d 3d 26 bc a3 3b 01 3d c8 ae 09 3d f7 ac 22 3d
       -0.010146421 0.031551015 0.03361395 0.039715733
000230 b9 e4 bb bc 52 24 14 3d 05 e5 15 3d 4b c0 58 3c
       -0.022936212 0.03616745 0.036595363 0.01322944
000240 9c 92 81 bc 4f 9f 07 bd e5 20 1b 3d 2d 0c a7 3b
       -0.01581698 -0.033110913 0.037873168 0.005097887
000250 91 f6 32 bc da 88 3e 3d 8c 9b fe 3c bb 9a b2 3c
       -0.010923044 0.04651723 0.03108003 0.021802297
000260 2e 01 11 bc cc cd 26 3d 59 88 41 3d ef b9 91 3d
       -0.008850379 0.040723607 0.047249172 0.07115542
000270 b6 df 77 3d 84 b1 da 3c 28 25 03 3d e4 9f 45 3d
       0.06051608 0.026695974 0.032017857 0.048248187
000280 a5 36 de 3c 4b 83 46 bc 17 22 1d 3d 8f fa 90 3c
       0.027125666 -0.012116264 0.03836259 0.0176976
000290 83 6e af bc 96 d2 19 3d e3 5e 7a 3c 79 2c 31 3c
       -0.021415 0.037554346 0.015281412 0.010813826
0002a0 d4 33 f9 bc de 00 2f 3c b2 10 85 bc 78 b5 89 3c
       -0.030420221 0.010681359 -0.016243313 0.016810164
0002b0 2e ed 39 bd 8d 63 ae 3c 7f d3 b7 3c 7f 6c 33 3d
       -0.045392208 0.021287704 0.022439716 0.04380464
0002c0 99 6c 87 bc e0 59 00 bd 4d ee 86 3b ad a2 fa 3c
       -0.016531276 -0.03133571 0.004117763 0.030595148
0002d0 74 14 c0 3a 72 6a d3 bb a7 56 eb 3c 85 d5 c1 3c
       0.0014654533 -0.0064518983 0.028727842 0.023661384
0002e0 f3 a9 3b bd 26 09 94 3c a1 02 8c 3b 86 99 a5 bc
       -0.045816373 0.018070769 0.0042727743 -0.020214807
0002f0 c5 e6 e0 3b 8b b9 d8 3b 5b f0 ed 3c 07 ac 23 bd
       0.0068634474 0.0066139153 0.029045274 -0.03995898
000300 7a 13 c3 bc ab 8f 00 3d 17 af 5a bc 13 61 b5 3c
       -0.023812998 0.031387012 -0.013347409 0.022141015
000310 7f 3a 80 3a d4 9d 0d bb aa bf fd bc 3c df 04 bc
       0.0009783058 -0.0021608965 -0.030975182 -0.008109864
000320 0d 85 5a bd 02 e5 25 bd 72 d8 75 bc 0e 15 9c 3a
       -0.053349543 -0.040501602 -0.015005218 0.001190813
000330 31 8a 05 bd 54 75 d2 3c 96 08 4f bc 6c ee d7 39
       -0.032602493 0.025690712 -0.012636324 0.00041185634
000340 0d fd fa bc e9 66 15 bd 09 24 3b bb 1f aa 58 bc
       -0.030638242 -0.036475096 -0.0028555414 -0.013224154
000350 ad 86 bb 3b 7e d0 0f bc d2 e2 26 bc f5 cc c7 bb
       0.0057228417 -0.008777736 -0.010185914 -0.006097431
000360 e0 3e 50 3c 4a 9d bf bc 2b fb fd bc 57 6c 27 bd
       0.012710303 -0.023390431 -0.031003555 -0.040874805
000370 1c a8 77 3c e5 fa 36 bd a8 da d8 3c df 3d ff bc
       0.015115764 -0.044672865 0.02647145 -0.031157432
000380 d9 98 be 3c b0 1b c6 3a 5b b4 40 3c 35 c4 84 bc
       0.023266243 0.0015114453 0.01176175 -0.01620684
000390 27 24 44 bd e8 90 dc 3c 0d 88 a4 bc 9e c8 d4 3c
       -0.04788604 0.026924565 -0.020084405 0.025974568
0003a0 18 06 1f 3d 30 47 d2 bc 5b 4c 1c bd f8 43 bb 3c
       0.03882417 -0.02566871 -0.038158756 0.022859558
0003b0 f6 91 1c bd 11 3c f7 bb e7 c5 c6 3b 3a 94 7f 3c
       -0.038225137 -0.0075450023 0.0060660723 0.015599305
0003c0 1a 7a 85 bc ef af 15 3d 8e 4c 2b bd 1a cb 67 3d
       -0.016293574 0.036544736 -0.041821055 0.056590177
0003d0 0f b6 93 3c 06 36 13 3d 31 a8 33 3b 8f 4f 82 bb
       0.018031148 0.035940193 0.0027413482 -0.0039767693
0003e0 29 6d 6b 3d 46 de f0 3c bb ab ca bb 57 e8 2a bc
       0.05747715 0.029402863 -0.0061850226 -0.010431371
0003f0 18 be a7 bc cc 11 4a 3d ef 5a 55 3d d8 9b b8 3c
       -0.020476386 0.04933338 0.052088674 0.02253525
